…
only storage class. This should only matter to you if you are using storages directly.  To access UntypedStorage directly, use tensor.untyped_storage() instead of tensor.storage()\n","  return super().__sizeof__() + self.nbytes()\n"]},{"output_type":"execute_result","data":{"text/plain":["==========================================================================================\n","Layer (type:depth-idx)                   Output Shape              Param #\n","==========================================================================================\n","ConditionalVAE                           [100, 784]                --\n","Flatten: 1-1                           [100, 784]                --\n","Linear: 1-2                            [100, 256]                203,520\n","Linear: 1-3                            [100, 128]                32,896\n","Linear: 1-4                            [100, 64]                 8,256\n","Linear: 1-5                            [100, 2]                  130\n","Linear: 1-6                            [100, 2]                  130\n","Linear: 1-7                            [100, 64]                 832\n","Linear: 1-8                            [100, 128]                8,320\n","Linear: 1-9                            [100, 256]                33,024\n","Linear: 1-10                           [100, 784]                201,488\n","==========================================================================================\n","Total params: 488,596\n","Trainable params: 488,596\n","Non-trainable params: 0\n","Total mult-adds (M): 48.86\n","==========================================================================================\n","Input size (MB): 0.32\n","Forward/backward pass size (MB): 1.35\n","Params size (MB): 1.95
…
