…
":"(-)","userId":"13375438399712153250"}},"outputId":"44be6338-0160-45be-df1f-ff69b5814a13"},"source":["from torchinfo import summary\n","\n","summary(ae, [(batch_size, 1, 28, 28), (batch_size, 10)])"],"execution_count":106,"outputs":[{"output_type":"execute_result","data":{"text/plain":["==========================================================================================\n","Layer (type:depth-idx)                   Output Shape              Param #\n","==========================================================================================\n","ConditionalAE                            [100, 1, 28, 28]          --\n","Conv2d: 1-1                            [100, 16, 14, 14]         160\n","ReLU: 1-2                              [100, 16, 14, 14]         --\n","Conv2d: 1-3                            [100, 32, 7, 7]           4,640\n","ReLU: 1-4                              [100, 32, 7, 7]           --\n","Linear: 1-5                            [100, 256]                404,224\n","ReLU: 1-6                              [100, 256]                --\n","Linear: 1-7                            [100, 128]                32,896\n","ReLU: 1-8                              [100, 128]                --\n","Linear: 1-9                            [100, 32]                 4,128\n","ReLU: 1-10                             [100, 32]                 --\n","Linear: 1-11                           [100, 2]                  66\n","Linear: 1-12                           [100, 32]                 416\n","ReLU: 1-13                             [100, 32]                 --\n","Linear: 1-14                           [100, 128]                4,224\n","ReLU: 1-15                             [100, 128]                --\n","Linear: 1-16                           [100, 1568]               202,272\n","ReLU: 1-17                             [100, 1568]               --\n","ConvTranspose2d: 1-18                  [100, 16, 14, 14]         8,208\n","ReLU: 1-19                             [100, 16, 14, 14]         --\n","ConvTranspose2d: 1-20                  [100, 1, 28, 28]          257\n","Sigmoid: 1-21                          [100, 1, 28, 28]          --\n","==========================================================================================\n","Total params: 661,491\n","Trainable params: 661,491\n","Non-trainable params: 0\n","Total mult-adds (M): 271.72\n","==========================================================================================\n","Input size (MB): 0.32\n","Forward/backward pass size (MB): 8.62\n","Params size (MB): 2.6
…
