…
only storage class. This should only matter to you if you are using storages directly.  To access UntypedStorage directly, use tensor.untyped_storage() instead of tensor.storage()\n","  return super().__sizeof__() + self.nbytes()\n"]},{"output_type":"execute_result","data":{"text/plain":["==========================================================================================\n","Layer (type:depth-idx)                   Output Shape              Param #\n","==========================================================================================\n","CondGenerator                            [256, 1, 28, 28]          --\n","├─Linear: 1-1                            [256, 12544]              1,379,840\n","├─BatchNorm1d: 1-2                       [256, 12544]              25,088\n","├─LeakyReLU: 1-3                         [256, 12544]              --\n","├─ConvTranspose2d: 1-4                   [256, 128, 7, 7]          819,200\n","├─BatchNorm2d: 1-5                       [256, 128, 7, 7]          256\n","├─LeakyReLU: 1-6                         [256, 128, 7, 7]          --\n","├─ConvTranspose2d: 1-7                   [256, 64, 14, 14]         131,072\n","├─BatchNorm2d: 1-8                       [256, 64, 14, 14]         128\n","├─LeakyReLU: 1-9                         [256, 64, 14, 14]         --\n","├─ConvTranspose2d: 1-10                  [256, 1, 28, 28]          1,024\n","├─Tanh: 1-11                             [256, 1, 28, 28]          --\n","==========================================================================================\n","Total params: 2,356,608\n","Trainable params: 2,356,608\n","Non-trainable params: 0\n","Total mult-adds (G): 17.42\n","==========================================================================================\n","Input size (MB): 0.11\n","Forward/backward pass size (MB): 130.06\n","Params size (MB)
…
fo":{"status":"ok","timestamp":1681477469993,"user_tz":-540,"elapsed":491,"user":{"displayName":"‍윤민상(학부생-소프트웨어전공)","userId":"13375438399712153250"}},"outputId":"9cf79c89-843b-4988-8185-32fa0aa938bc"},"execution_count":null,"outputs":[{"output_type":"execute_result","data":{"text/plain":["==========================================================================================\n","Layer (type:depth-idx)                   Output Shape              Param #\n","==========================================================================================\n","CondDiscriminator                        [256, 1]                  --\n","├─Linear: 1-1                            [256, 512]                407,040\n","├─LeakyReLU: 1-2                         [256, 512]                --\n","├─Linear: 1-3                            [256, 256]                131,328\n","├─LeakyReLU: 1-4                         [256, 256]                --\n","├─Linear: 1-5                            [256, 1]                  257\n","├─Sigmoid: 1-6                           [256, 1]                  --\n","==========================================================================================\n","Total params: 538,625\n","Trainable params: 538,625\n","Non-trainable params: 0\n","Total mult-adds (M): 137.89\n","==========================================================================================\n","Input size (MB): 0.81\n","Forward/backward pass size (MB): 1.57\n","Params size (MB): 2.1
…
